…
: Pooling layers are used to reduce the dimensions of the feature maps. Here we used Max-Pooling among the available pooling techniques. . | Dropout: The term “dropout” refers to dropping out units (hidden and visible) in a neural network. Used to prevent overfitting. . | 2.4. Model Summary . Below is summary of our model that gives the total trainable parameters and dimensions for each layer. This can be compared with the originally proposed AlexNet. . summary(model, (3, 227, 227)) . - Layer (type) Output Shape Param # ================================================================ Conv2d-1 [-1, 96, 55, 55] 34,944 ReLU-2 [-1, 96, 55, 55] 0 LocalResponseNorm-3 [-1, 96, 55, 55] 0 MaxPool2d-4 [-1, 96, 27, 27] 0 Conv2d-5 [-1, 256, 27, 27] 614,656 ReLU-6 [-1, 256, 27, 27] 0 LocalResponseNorm-7 [-1, 256, 27, 27] 0 MaxPool2d-8 [-1, 256, 13, 13] 0 Conv2d-9 [-1, 384, 13, 13] 885,120 ReLU-10 [-1, 384, 13, 13] 0 Conv2d-11 [-1, 384, 13, 13] 1,327,488 ReLU-12 [-1, 384, 13, 13] 0 Conv2d-13 [-1, 256, 13, 13] 884,992 ReLU-14 [-1, 256, 13, 13] 0 MaxPool2d-15 [-1, 256, 6, 6] 0 Dropout-16 [-1, 9216] 0 Linear-17 [-1, 4096] 37,752,832 ReLU-18 [-1, 4096] 0 Dropout-19 [-1, 4096] 0 Linear-20 [-1, 4096] 16,781,312 ReLU-21 [-1, 4096] 0 Linear-22 [-1, 1000] 4,097,000 ================================================================ Total params: 62,378,344 Trainable params: 62,378,344 Non-trainable params: 0 - Input size (MB): 0.59 Forward/backward pass size (MB): 14.73 Params size (MB): 237.95 Estimated Total Size (MB): 253.27 - . Notice the size of model, total trainable parameter and parameter size. This can be compared with LeNet Classifier in my previous 
…
