…
(5, 5), stride=(1, 1)) (conv2): Conv2d(6, 16, kernel_size=(5, 5), stride=(1, 1)) (fc_1): Linear(in_features=256, out_features=120, bias=True) (fc_2): Linear(in_features=120, out_features=84, bias=True) (fc_3): Linear(in_features=84, out_features=10, bias=True) ) . Model Summary . Below is summary of our model that displays the total trainable parameters and output shape for each layer. This looks somewhat like originally proposed LeNet. . #collapse-hide summary(model, (1, 28, 28)) . . - Layer (type) Output Shape Param # ================================================================ Conv2d-1 [-1, 6, 24, 24] 156 Conv2d-2 [-1, 16, 8, 8] 2,416 Linear-3 [-1, 120] 30,840 Linear-4 [-1, 84] 10,164 Linear-5 [-1, 10] 850 ================================================================ Total params: 44,426 Trainable params: 44,426 Non-trainable params: 0 - Input size (MB): 0.00 Forward/backward pass size (MB): 0.04 Params size (MB): 0.17 Estimated Total Size (MB): 0.21 - . Training . Training the model. . #collapse-hide #Number of Epochs EPOCHS = 20 #Variable to monitor best validation loss best_valid_loss = float
…
